…
2022-08-16 20:55:37.669951: I tensorflow/core/common_runtime/gpu/gpu_device.cc:1525] Created device /job:localhost/replica:0/task:0/device:GPU:0 with 30989 MB memory:  -> device: 4, name: Tesla V100-SXM2-32GB, pci bus id: 0000:b1:00.0, compute capability: 7.0
Namespace(batch_size=100, draw_frequency=1, input_length=10240, models='cnn_yju', number_of_samples=10000, path='/home/u9773662/hpcai/2022-APAC-HPC-AI/Deep_Learning_Based_DNA_Sequence_Fast_Decoding/', random_seed=1, transcription_factor='CTCF', vocab_size=5)
Model: "sequential_1"
_________________________________________________________________
 Layer (type)                Output Shape              Param #   
=================================================================
 conv1d_3 (Conv1D)           (None, 10240, 128)        12288     
                                                                 
 conv1d_4 (Conv1D)           (None, 10240, 128)        180352    
                                                                 
 conv1d_5 (Conv1D)           (None, 10240, 128)        82048     
                                                                 
 dense_1 (Dense)             (None, 10240, 1024)       132096    
                                                                 
 dense_2 (Dense)             (None, 10240, 256)        262400    
                                                                 
 dense_3 (Dense)             (None, 10240, 64)         16448     
                                                                 
 dense_4 (Dense)             (None, 10240, 1)          65        
                                                                 
=================================================================
Total params: 685,697
Trainable params: 685,697
Non-trainable params: 0
_________________________________________________________________
Namespace(batch_size=100, draw_frequency=1, input_length=10240, models='cnn_yju', number_of_samples=10000, path='/home/u9773662/hpcai/2022-APAC-HPC-AI/Deep_Learning_Based_DNA_Sequence_Fast_Decoding/', random_seed=1, transcription_factor='CTCF', vocab_size=5)
Model: "sequential_1"
_________________________________________________________________
 Layer (type)                Output Shape              Param #   
=================================================================
 conv1d_3 (Conv1D)           (None, 10240, 128)        12288     
                                                                 
 conv1d_4 (Conv1D)           (None, 10240, 128)        180352    
                                                                 
 conv1d_5 (Conv1D)           (None, 10240, 128)        82048     
                                                                 
 dense_1 (Dense)             (None, 10240, 1024)       132096    
                                                                 
 dense_2 (Dense)             (None, 10240, 256)        262400    
                                                                 
 dense_3 (Dense)             (None, 10240, 64)         16448     
                                                                 
 dense_4 (Dense)             (None, 10240, 1)          65        
                                                                 
=================================================================
Total params: 685,697
Trainable params: 685,697
Non-trainable params: 0
_________________________________________________________________
Namespace(batch_size=100, draw_frequency=1, input_length=10240, models='cnn_yju', number_of_samples=10000, path='/home/u9773662/hpcai/2022-APAC-HPC-AI/Deep_Learning_Based_DNA_Sequence_Fast_Decoding/', random_seed=1, transcription_factor='CTCF', vocab_size=5)
Model: "sequential_1"
_________________________________________________________________
 Layer (type)                Output Shape              Param #   
=================================================================
 conv1d_3 (Conv1D)           (None, 10240, 128)        12288     
                                                                 
 conv1d_4 (Conv1D)           (None, 10240, 128)        180352    
                                                                 
 conv1d_5 (Conv1D)           (None, 10240, 128)        82048     
                                                                 
 dense_1 (Dense)             (None, 10240, 1024)       132096    
                                                                 
 dense_2 (Dense)             (None, 10240, 256)        262400    
                                                                 
 dense_3 (Dense)             (None, 10240, 64)         16448     
                                                                 
 dense_4 (Dense)             (None, 10240, 1)          65        
                                                                 
=================================================================
Total params: 685,697
Trainable params: 685,697
Non-trainable params: 0
_________________________________________________________________
Namespace(batch_size=100, draw_frequency=1, input_length=10240, models='cnn_yju', number_of_samples=10000, path='/home/u9773662/hpcai/2022-APAC-HPC-AI/Deep_Learning_Based_DNA_Sequence_Fast_Decoding/', random_seed=1, transcription_factor='CTCF', vocab_size=5)
Model: "sequential_1"
_________________________________________________________________
 Layer (type)                Output Shape              Param #   
=================================================================
 conv1d_3 (Conv1D)           (None, 10240, 128)        12288     
                                                                 
 conv1d_4 (Conv1D)           (None, 10240, 128)        180352    
                                                                 
 conv1d_5 (Conv1D)           (None, 10240, 128)        82048     
                                                                 
 dense_1 (Dense)             (None, 10240, 1024)       132096    
                                                                 
 dense_2 (Dense)             (None, 10240, 256)        262400    
                                                                 
 dense_3 (Dense)             (None, 10240, 64)         16448     
                                                                 
 dense_4 (Dense)             (None, 10240, 1)          65        
                                                                 
=================================================================
Total params: 685,697
Trainable params: 685,697
Non-trainable params: 0
_________________________________________________________________
Namespace(batch_size=100, draw_frequency=1, input_length=10240, models='cnn_yju', number_of_samples=10000, path='/home/u9773662/hpcai/2022-APAC-HPC-AI/Deep_Learning_Based_DNA_Sequence_Fast_Decoding/', random_seed=1, transcription_factor='CTCF', vocab_size=5)
Model: "sequential_1"
_________________________________________________________________
 Layer (type)                Output Shape              Param #   
=================================================================
 conv1d_3 (Conv1D)           (None, 10240, 128)        12288     
                                                                 
 conv1d_4 (Conv1D)           (None, 10240, 128)        180352    
                                                                 
 conv1d_5 (Conv1D)           (None, 10240, 128)        82048     
                                                                 
 dense_1 (Dense)             (None, 10240, 1024)       132096    
                                                                 
 dense_2 (Dense)             (None, 10240, 256)        262400    
                                                                 
 dense_3 (Dense)             (None, 10240, 64)         16448     
                                                                 
 dense_4 (Dense)             (None, 10240, 1)          65        
                                                                 
=================================================================
Total params: 685,697
Trainable params: 685,697
Non-trainable params: 0
_________________________________________________________________
Namespace(batch_size=100, draw_frequency=1, input_length=10240, models='cnn_yju', number_of_samples=10000, path='/home/u9773662/hpcai/2022-APAC-HPC-AI/Deep_Learning_Based_DNA_Sequence_Fast_Decoding/', random_seed=1, transcription_factor='CTCF', vocab_size=5)
Model: "sequential_1"
_________________________________________________________________
 Layer (type)                Output Shape              Param #   
=================================================================
 conv1d_3 (Conv1D)           (None, 10240, 128)        12288     
                                                                 
 conv1d_4 (Conv1D)           (None, 10240, 128)        180352    
                                                                 
 conv1d_5 (Conv1D)           (None, 10240, 128)        82048     
                                                                 
 dense_1 (Dense)             (None, 10240, 1024)       132096    
                                                                 
 dense_2 (Dense)             (None, 10240, 256)        262400    
                                                                 
 dense_3 (Dense)             (None, 10240, 64)         16448     
                                                                 
 dense_4 (Dense)             (None, 10240, 1)          65        
                                                                 
=================================================================
Total params: 685,697
Trainable params: 685,697
Non-trainable params: 0
_________________________________________________________________
Namespace(batch_size=100, draw_frequency=1, input_length=10240, models='cnn_yju', number_of_samples=10000, path='/home/u9773662/hpcai/2022-APAC-HPC-AI/Deep_Learning_Based_DNA_Sequence_Fast_Decoding/', random_seed=1, transcription_factor='CTCF', vocab_size=5)
Model: "sequential_1"
_________________________________________________________________
 Layer (type)                Output Shape              Param #   
=================================================================
 conv1d_3 (Conv1D)           (None, 10240, 128)        12288     
                                                                 
 conv1d_4 (Conv1D)           (None, 10240, 128)        180352    
                                                                 
 conv1d_5 (Conv1D)           (None, 10240, 128)        82048     
                                                                 
 dense_1 (Dense)             (None, 10240, 1024)       132096    
                                                                 
 dense_2 (Dense)             (None, 10240, 256)        262400    
                                                                 
 dense_3 (Dense)             (None, 10240, 64)         16448     
                                                                 
 dense_4 (Dense)             (None, 10240, 1)          65        
                                                                 
=================================================================
Total params: 685,697
Trainable params: 685,697
Non-trainable params: 0
_________________________________________________________________
Namespace(batch_size=100, draw_frequency=1, input_length=10240, models='cnn_yju', number_of_samples=10000, path='/home/u9773662/hpcai/2022-APAC-HPC-AI/Deep_Learning_Based_DNA_Sequence_Fast_Decoding/', random_seed=1, transcription_factor='CTCF', vocab_size=5)
Model: "sequential_1"
_________________________________________________________________
 Layer (type)                Output Shape              Param #   
=================================================================
 conv1d_3 (Conv1D)           (None, 10240, 128)        12288     
                                                                 
 conv1d_4 (Conv1D)           (None, 10240, 128)        180352    
                                                                 
 conv1d_5 (Conv1D)           (None, 10240, 128)        82048     
                                                                 
 dense_1 (Dense)             (None, 10240, 1024)       132096    
                                                                 
 dense_2 (Dense)             (None, 10240, 256)        262400    
                                                                 
 dense_3 (Dense)             (None, 10240, 64)         16448     
                                                                 
 dense_4 (Dense)             (None, 10240, 1)          65        
                                                                 
=================================================================
Total params: 685,697
Trainable params: 685,697
Non-trainable params: 0
_________________________________________________________________
Namespace(batch_size=100, draw_frequency=1, input_length=10240, models='cnn_yju', number_of_samples=10000, path='/home/u9773662/hpcai/2022-APAC-HPC-AI/Deep_Learning_Based_DNA_Sequence_Fast_Decoding/', random_seed=1, transcription_factor='CTCF', vocab_size=5)
Model: "sequential_1"
_________________________________________________________________
 Layer (type)                Output Shape              Param #   
=================================================================
Epoch 1/200
 conv1d_3 (Conv1D)           (None, 10240, 128)        12288     
                                                                 
 conv1d_4 (Conv1D)           (None, 10240, 128)        180352    
                                                                 
 conv1d_5 (Conv1D)           (None, 10240, 128)        82048     
                                                                 
 dense_1 (Dense)             (None, 10240, 1024)       132096    
                                                                 
 dense_2 (Dense)             (None, 10240, 256)        262400    
                                                                 
 dense_3 (Dense)             (None, 10240, 64)         16448     
                                                                 
 dense_4 (Dense)             (None, 10240, 1)          65        
                                                                 
=================================================================
Total params: 685,697
Trainable params: 685,697
Non-trainable params: 0
_________________________________________________________________
Namespace(batch_size=100, draw_frequency=1, input_length=10240, models='cnn_yju', number_of_samples=10000, path='/home/u9773662/hpcai/2022-APAC-HPC-AI/Deep_Learning_Based_DNA_Sequence_Fast_Decoding/', random_seed=1, transcription_factor='CTCF', vocab_size=5)
Model: "sequential_1"
_________________________________________________________________
 Layer (type)                Output Shape              Param #   
=================================================================
 conv1d_3 (Conv1D)           (None, 10240, 128)        12288     
                                                                 
 conv1d_4 (Conv1D)           (None, 10240, 128)        180352    
                                                                 
 conv1d_5 (Conv1D)           (None, 10240, 128)        82048     
                                                                 
 dense_1 (Dense)             (None, 10240, 1024)       132096    
                                                                 
 dense_2 (Dense)             (None, 10240, 256)        262400    
                                                                 
 dense_3 (Dense)             (None, 10240, 64)         16448     
                                                                 
 dense_4 (Dense)             (None, 10240, 1)          65        
                                                                 
=================================================================
Total params: 685,697
Trainable params: 685,697
Non-trainable params: 0
_________________________________________________________________
Namespace(batch_size=100, draw_frequency=1, input_length=10240, models='cnn_yju', number_of_samples=10000, path='/home/u9773662/hpcai/2022-APAC-HPC-AI/Deep_Learning_Based_DNA_Sequence_Fast_Decoding/', random_seed=1, transcription_factor='CTCF', vocab_size=5)
Model: "sequential_1"
_________________________________________________________________
 Layer (type)                Output Shape              Param #   
=================================================================
 conv1d_3 (Conv1D)           (None, 10240, 128)        12288     
                                                                 
 conv1d_4 (Conv1D)           (None, 10240, 128)        180352    
                                                                 
 conv1d_5 (Conv1D)           (None, 10240, 128)        82048     
                                                                 
 dense_1 (Dense)             (None, 10240, 1024)       132096    
                                                                 
 dense_2 (Dense)             (None, 10240, 256)        262400    
                                                                 
 dense_3 (Dense)             (None, 10240, 64)         16448     
                                                                 
 dense_4 (Dense)             (None, 10240, 1)          65        
                                                                 
=================================================================
Total params: 685,697
Trainable params: 685,697
Non-trainable params: 0
_________________________________________________________________
Epoch 1/200
Namespace(batch_size=100, draw_frequency=1, input_length=10240, models='cnn_yju', number_of_samples=10000, path='/home/u9773662/hpcai/2022-APAC-HPC-AI/Deep_Learning_Based_DNA_Sequence_Fast_Decoding/', random_seed=1, transcription_factor='CTCF', vocab_size=5)
Model: "sequential_1"
_________________________________________________________________
 Layer (type)                Output Shape              Param #   
=================================================================
 conv1d_3 (Conv1D)           (None, 10240, 128)        12288     
                                                                 
 conv1d_4 (Conv1D)           (None, 10240, 128)        180352    
                                                                 
 conv1d_5 (Conv1D)           (None, 10240, 128)        82048     
                                                                 
 dense_1 (Dense)             (None, 10240, 1024)       132096    
                                                                 
 dense_2 (Dense)             (None, 10240, 256)        262400    
                                                                 
 dense_3 (Dense)             (None, 10240, 64)         16448     
                                                                 
 dense_4 (Dense)             (None, 10240, 1)          65        
                                                                 
=================================================================
Total params: 685,697
Trainable params: 685,697
Non-trainable params: 0
_________________________________________________________________
Namespace(batch_size=100, draw_frequency=1, input_length=10240, models='cnn_yju', number_of_samples=10000, path='/home/u9773662/hpcai/2022-APAC-HPC-AI/Deep_Learning_Based_DNA_Sequence_Fast_Decoding/', random_seed=1, transcription_factor='CTCF', vocab_size=5)
Model: "sequential_1"
_________________________________________________________________
 Layer (type)                Output Shape              Param #   
=================================================================
 conv1d_3 (Conv1D)           (None, 10240, 128)        12288     
                                                                 
 conv1d_4 (Conv1D)           (None, 10240, 128)        180352    
                                                                 
 conv1d_5 (Conv1D)           (None, 10240, 128)        82048     
                                                                 
 dense_1 (Dense)             (None, 10240, 1024)       132096    
                                                                 
 dense_2 (Dense)             (None, 10240, 256)        262400    
                                                                 
 dense_3 (Dense)             (None, 10240, 64)         16448     
                                                                 
 dense_4 (Dense)             (None, 10240, 1)          65        
                                                                 
=================================================================
Namespace(batch_size=100, draw_frequency=1, input_length=10240, models='cnn_yju', number_of_samples=10000, path='/home/u9773662/hpcai/2022-APAC-HPC-AI/Deep_Learning_Based_DNA_Sequence_Fast_Decoding/', random_seed=1, transcription_factor='CTCF', vocab_size=5)
Model: "sequential_1"
_________________________________________________________________
 Layer (type)                Output Shape              Param #   
=================================================================
Total params: 685,697
Trainable params: 685,697
Non-trainable params: 0
_________________________________________________________________
 conv1d_3 (Conv1D)           (None, 10240, 128)        12288     
                                                                 
 conv1d_4 (Conv1D)           (None, 10240, 128)        180352    
                                                                 
 conv1d_5 (Conv1D)           (None, 10240, 128)        82048     
                                                                 
 dense_1 (Dense)             (None, 10240, 1024)       132096    
                                                                 
 dense_2 (Dense)             (None, 10240, 256)        262400    
                                                                 
 dense_3 (Dense)             (None, 10240, 64)         16448     
                                                                 
 dense_4 (Dense)             (None, 10240, 1)          65        
                                                                 
=================================================================
Total params: 685,697
Trainable params: 685,697
Non-trainable params: 0
_________________________________________________________________
Namespace(batch_size=100, draw_frequency=1, input_length=10240, models='cnn_yju', number_of_samples=10000, path='/home/u9773662/hpcai/2022-APAC-HPC-AI/Deep_Learning_Based_DNA_Sequence_Fast_Decoding/', random_seed=1, transcription_factor='CTCF', vocab_size=5)
Model: "sequential_1"
_________________________________________________________________
 Layer (type)                Output Shape              Param #   
=================================================================
 conv1d_3 (Conv1D)           (None, 10240, 128)        12288     
                                                                 
 conv1d_4 (Conv1D)           (None, 10240, 128)        180352    
                                                                 
 conv1d_5 (Conv1D)           (None, 10240, 128)        82048     
                                                                 
 dense_1 (Dense)             (None, 10240, 1024)       132096    
                                                                 
 dense_2 (Dense)             (None, 10240, 256)        262400    
                                                                 
 dense_3 (Dense)             (None, 10240, 64)         16448     
                                                                 
 dense_4 (Dense)             (None, 10240, 1)          65        
                                                                 
=================================================================
Total params: 685,697
Trainable params: 685,697
Non-trainable params: 0
_________________________________________________________________
Namespace(batch_size=100, draw_frequency=1, input_length=10240, models='cnn_yju', number_of_samples=10000, path='/home/u9773662/hpcai/2022-APAC-HPC-AI/Deep_Learning_Based_DNA_Sequence_Fast_Decoding/', random_seed=1, transcription_factor='CTCF', vocab_size=5)
Model: "sequential_1"
_________________________________________________________________
 Layer (type)                Output Shape              Param #   
=================================================================
 conv1d_3 (Conv1D)           (None, 10240, 128)        12288     
                                                                 
 conv1d_4 (Conv1D)           (None, 10240, 128)        180352    
                                                                 
 conv1d_5 (Conv1D)           (None, 10240, 128)        82048     
                                                                 
 dense_1 (Dense)             (None, 10240, 1024)       132096    
                                                                 
 dense_2 (Dense)             (None, 10240, 256)        262400    
                                                                 
 dense_3 (Dense)             (None, 10240, 64)         16448     
                                                                 
 dense_4 (Dense)             (None, 10240, 1)          65        
                                                                 
=================================================================
Total params: 685,697
Trainable params: 685,697
Non-trainable params: 0
_________________________________________________________________
Epoch 1/200
Epoch 1/200
Epoch 1/200
Epoch 1/200
Epoch 1/200
Epoch 1/200
Epoch 1/200
Epoch 1/200
Epoch 1/200
Epoch 1/200
Epoch 1/200
…
